Numbers_project/cudaRT_numbers/models/own_opt_model.onnx (onnx, 431934 bytes, 34 tensors)

StatefulPartitionedCall/model_1/dense_5/MatMul/ReadVariableOp:0 f4 [16, 2]
0.42167175 -0.17089862 -0.34345236 0.10069583 -0.23156455 0.36280793 0.46862787 -0.39148167
-0.37995327 0.08308692 0.2906032 -0.3934601 0.33599916 -0.20692982 0.49859512 0.3467399
0.14949608 -0.24482548 -0.36531788 0.4659821 -0.07230952 -0.20197123 -0.4494731 -0.49782485
-0.11480877 -0.5242898 -0.32588172 0.3096136 0.47501442 0.058379985 -0.3317131 0.4891082
00000000: 5ce5 d73e 0c00 2fbe fdd8 afbe 9e39 ce3d
00000010: 421f 6dbe f6c1 b93e feef ef3e 4970 c8be
00000020: 3c89 c2be 7a29 aa3d f1c9 943e 9a73 c9be
00000030: 1508 ac3e 69e5 53be dc47 ff3e e487 b13e
00000040: 8015 193e 88b3 7abe f20a bbbe 3595 ee3e
00000050: 0317 94bd 8cd1 4ebe 5721 e6be e6e2 febe
00000060: dc20 ebbd db37 06bf f8d9 a6be ac85 9e3e
00000070: 1735 f33e da1f 6f3d 4dd6 a9be 646c fa3e

StatefulPartitionedCall/model_1/dense_5/BiasAdd/ReadVariableOp:0 f4 [2]
-0.1719554 0.20654896
00000000: 1415 30be 9281 533e

StatefulPartitionedCall/model_1/dense_4/MatMul/ReadVariableOp:0 f4 [16, 16]
-0.4763416 0.35509798 -0.19673933 0.22083344 0.25111145 -0.3039629 -0.47814256 -0.1369088
-0.25472748 0.3856667 -0.02022294 -0.23142698 -0.013071868 0.41049993 0.14637871 -0.11564441
-0.001875372 -0.26341364 0.13568608 0.07679986 0.2555446 0.25605944 -0.20659761 -0.31886587
-0.39590105 0.2518488 -0.27362937 0.4933351 -0.32582915 -0.04619111 0.18312298 0.30200312
-0.18615788 -0.43801472 0.15068528 -0.2153745 0.025483204 -0.06952431 0.429765 0.35817772
0.05810745 -0.2018319 -0.08895818 -0.3024471 -0.16763258 -0.23687896 0.43685353 -0.07171883
0.4174534 -0.15606916 0.13610107 0.121252544 -0.30891454 0.21347368 -0.14034118 0.2750931
-0.03378636 0.041743964 0.20169795 -0.040466033 0.17486028 -0.17892341 0.3199654 0.14537318
0.0660657 -0.40137574 -0.42908752 0.12735799 -0.18281828 0.34370324 -0.052497987 -0.27646855
-0.34657568 0.05431461 0.31384256 -0.12452038 0.34447044 -0.24591963 0.021945048 -0.25707257
-0.0810462 0.4602648 -0.2149068 -0.19796565 0.025613096 -0.43192458 -0.047323115 0.10899535
-0.48173973 0.35815814 0.0013958598 -0.2546714 0.012294921 0.41866443 -0.10152852 0.31338644
0.40246 -0.2284881 -0.29639065 -0.33711487 -0.38877243 -0.089206584 0.21329801 0.18132581
0.4144401 0.33050627 0.28720188 0.07487934 -0.119528644 0.2724329 0.3822705 -0.029524427
-0.016787568 0.1311697 0.11748146 -0.3622195 0.45234963 -0.19994956 -0.11948267 0.1623803
-0.102252066 0.37023255 0.21997255 0.1826942 0.004667897 0.042327248 -0.27995926 -0.19412561
-0.23852208 0.024886938 0.4126571 -0.23194066 0.31983417 0.13087824 -0.23542385 -0.4000763
-0.18085681 -0.003162421 -0.28707948 -0.16229984 0.045144293 0.17413613 -0.0284136 0.419117
0.32808995 0.13782491 0.19850954 0.3463569 0.027793258 0.319721 0.3105323 0.20735861
0.00092774804 0.093658105 0.21574788 -0.016144548 -0.05887113 0.26890898 0.4248683 -0.16313344
0.07977301 0.2188128 -0.45878354 -0.28064626 -0.23742637 0.37079695 0.083113566 -0.26369983
0.39100426 -0.42897516 -0.02802217 -0.28596428 -0.2588812 -0.19432437 0.042308338 0.1432284
0.0020301614 0.2628878 -0.29888135 0.016149463 0.061268046 0.21984845 -0.207526 -0.24349359
-0.062240668 -0.23018603 -0.06364886 0.06987086 0.29836962 -0.08286269 0.26206023 -0.44136745
-0.14135063 -0.16168049 0.16935076 0.3538015 0.1558773 0.22640675 0.44688222 -0.16042791
0.343735 0.09149251 -0.021664515 0.13990055 0.12779182 -0.017436735 -0.29958075 -0.4443742
0.3002074 0.28778872 0.33347893 -0.3709433 -0.28324297 0.014374343 0.25491777 -0.11153747
-0.44563863 0.42555073 0.3220802 0.16288234 0.25218868 0.42168063 -0.47151172 -0.108783685
-0.16114551 0.4847249 0.23760352 -0.42353517 0.19223078 0.036238346 -0.16616333 -0.34581465
-0.073801436 -0.038521755 -0.25786215 -0.18556793 0.18751818 -0.023735447 0.11162833 0.0704135
0.46150985 -0.37359187 -0.086969286 0.2669686 0.07450982 -0.06145149 -0.008900856 0.20310637
-0.3085934 -0.011929624 0.055249203 0.06996586 0.17544153 0.06931074 -0.2634149 0.0586117
00000000: 0ce3 f3be 67cf b53e 0976 49be 2922 623e
00000010: ae91 803e 06a1 9bbe 1acf f4be d231 0cbe
00000020: a46b 82be 1b76 c53e 94aa a5bc 32fb 6cbe
00000030: 632b 56bc 0c2d d23e 4de4 153e fad6 ecbd
00000040: 0bcf f5ba 27de 86be 4bf1 0a3e 3f49 9d3d
00000050: bed6 823e 391a 833e 538e 53be 6342 a3be
00000060: 8bb3 cabe 53f2 803e 2619 8cbe 6b96 fc3e
00000070: 14d3 a6be e432 3dbd 9784 3b3e 27a0 9a3e
00000080: 2ca0 3ebe 7743 e0be 3e4d 1a3e 228b 5cbe
00000090: 27c2 d03c c362 8ebd 280a dc3e 1263 b73e
000000a0: 1402 6e3d 06ad 4ebe b52f b6bd 59da 9abe
000000b0: e0a7 2bbe 6690 72be 44ab df3e 52e1 92bd
000000c0: 74bc d53e 98d0 1fbe 145e 0b3e 4153 f83d
000000d0: 0c2a 9ebe d898 5a3e 99b5 0fbe 01d9 8c3e
000000e0: 9163 0abd b8fb 2a3d e889 4e3e b6bf 25bd
000000f0: 930e 333e b337 37be 81d2 a33e b5dc 143e
00000100: 744d 873d 1f81 cdbe 5cb1 dbbe 226a 023e
00000110: b734 3bbe dff9 af3e 2108 57bd 498d 8dbe
00000120: 5e72 b1be ff78 5e3d f9af a03e 8a04 ffbd
00000130: 6e5e b03e 5bd2 7bbe 1ac6 b33c 049f 83be
00000140: 8dfb a5bd d4a7 eb3e 8710 5cbe 82b7 4abe
00000150: 8ed2 d13c 3825 ddbe e2d5 41bd f438 df3d
00000160: 97a6 f6be 8160 b73e 48f5 b63a 4a64 82be
00000170: a370 493c 2f5b d63e 2fee cfbd 3074 a03e
00000180: 3d0f ce3e c9f8 69be 84c0 97be 529a acbe
00000190: 2e0d c7be f1b1 b6bd cb6a 5a3e 79ad 393e
000001a0: 7e31 d43e 1e38 a93e 200c 933e 575a 993d
000001b0: 6fcb f4bd 537c 8b3e f5b8 c33e 36dd f1bc
000001c0: 1586 89bc 5a51 063e 1f9a f03d d674 b9be
000001d0: 5f9a e73e 94bf 4cbe 55b3 f4bd 0547 263e
000001e0: 8869 d1bd 1f8f bd3e 7c40 613e 3014 3b3e
000001f0: 28f5 983b 565f 2d3d d256 8fbe ddc8 46be
00000200: 223f 74be b1df cb3c cb47 d33e da81 6dbe
00000210: 4ec1 a33e f204 063e f312 71be cdd6 ccbe
00000220: 8732 39be 9f40 4fbb 15fc 92be ee31 26be
00000230: 39e9 383d be50 323e a3c3 e8bc 8196 d63e
00000240: 68fb a73e f921 0d3e 1646 4b3e b155 b13e
00000250: b0ae e33c 79b2 a33e 17fe 9e3e d155 543e
00000260: 1e34 733a d2cf bf3d 03ed 5c3e 9241 84bc
00000270: db22 71bd 70ae 893e 5688 d93e 740c 27be
00000280: 0860 a33d 7610 603e ade5 eabe deb0 8fbe
00000290: e61f 73be 19d9 bd3e 7237 aa3d aa03 87be
000002a0: b631 c83e a2a2 dbbe c08e e5bc e969 92be
000002b0: 148c 84be f8fc 46be 824b 2d3d 77aa 123e
000002c0: 750c 053b 3b99 863e fa06 99be e14b 843c
000002d0: 34f4 7a3d f41f 613e b281 54be 6256 79be
000002e0: 12f0 7ebd e3b5 6bbe 555a 82bd 7418 8f3d
000002f0: e7c3 983e eab3 a9bd c22c 863e eafa e1be
00000300: 38be 10be 928f 25be 496a 2d3e 7825 b53e
00000310: 4d9e 1f3e 2cd7 673e bfcd e43e 3747 24be
00000320: 09fe af3e 6d60 bb3d c879 b1bc 1742 0f3e
00000330: dcdb 023e 7cd7 8ebc a662 99be 0485 e3be
00000340: c9b4 993e 0b59 933e c0bd aa3e 48ec bdbe
00000350: 3905 91be 5d82 6b3c 9584 823e c26d e4bd
00000360: bf2a e4be c9e1 d93e b2e7 a43e a1ca 263e
00000370: e01e 813e 86e6 d73e fc69 f1be fbc9 debd
00000380: 5403 25be dd2d f83e 564e 733e 9ad9 d8be
00000390: 25d8 443e a96e 143d b826 2abe 9e0e b1be
000003a0: 3525 97bd fdc8 1dbd 8206 84be 8505 3ebe
000003b0: c404 403e d770 c2bc 659d e43d f434 903d
000003c0: 054b ec3e 6f47 bfbe f41c b2bd 1cb0 883e
000003d0: 9b98 983d 8fb4 7bbd e5d4 11bc 1efb 4f3e
000003e0: f4ff 9dbe 7874 43bc fd4c 623d 434a 8f3d
000003f0: f2a6 333e caf2 8d3d 51de 86be d212 703d

StatefulPartitionedCall/model_1/dense_4/BiasAdd/ReadVariableOp:0 f4 [16]
-0.07246603 0.07611994 0.10773058 -0.077135034 0.069074854 -0.09719648 -0.087074056 -0.06663163
-0.13296758 0.07093591 0.070781976 0.07294802 -0.09713954 0.08982087 -0.06988001 0.09430932
00000000: 1269 94bd c5e4 9b3d daa1 dc3d f9f8 9dbd
00000010: 1e77 8d3d f30e c7bd e253 b2bd 2a76 88bd
00000020: a728 08be d946 913d 24f6 903d c665 953d
00000030: 18f1 c6bd 01f4 b73d 401d 8fbd 3f25 c13d

StatefulPartitionedCall/model_1/conv2d_9/Conv2D/ReadVariableOp:0 f4 [16, 3, 5, 5]
0.00906431 0.011113089 0.0008857805 0.045448873 0.09435305 0.08922995 -0.074565195 -0.07265333
0.053024083 -0.11369436 -0.008789539 0.015103053 0.05716521 0.06297909 0.014427071 -0.02173967
0.058341593 0.0924442 0.07597969 -0.025807599 -0.02700674 -0.0978582 0.0018571229 -0.021582995
-0.08624999 0.023689697 0.059163008 -0.0011659277 0.010671883 -0.09777664 0.09748907 -0.051875554
-0.03646334 -0.09249 -0.037988096 0.0458398 0.060840033 -0.016898062 -0.0395283 0.049440976
-0.10596544 -0.056231 -0.031340238 -0.0028083965 0.014604844 0.034246095 -0.011006548 -0.04707571
0.027873974 -0.012721762 -0.020773964 0.07297964 0.043862704 0.09489959 0.10033205 -0.010529759
0.06758877 -0.07058822 0.031470925 -0.06760516 0.09222676 0.08118437 -0.05170245 -0.080287546
-0.045261998 0.09344206 -0.113740265 -0.0013025184 -0.05677028 0.042479634 0.05875005 -0.08824325
-0.010774569 -0.08046533 0.007307291 0.0909175 0.100960426 0.025013484 0.03490317 0.10017042
-0.089055955 -0.06162532 -0.049948685 -0.07712968 -0.10528699 -0.0957486 -0.02377919 0.047524214
-0.09064303 0.018146902 -0.03054216 0.0727915 -0.0143452585 -0.016917244 -0.04549178 -0.06957989
-0.05325983 0.00050591375 0.0645437 0.046417467 0.015338788 -0.074199684 -0.07511801 0.04903458
0.022823172 0.024198651 0.06299847 -0.06638439 0.0678017 -0.084560595 0.075718895 -0.006108084
-0.047720417 0.08312678 -0.04918662 -0.033881184 -0.11116719 0.09301367 -0.053119574 0.003247991
-0.013283909 -0.010983328 -0.032026194 0.067933045 0.06105969 -0.015509439 0.015878119 -0.08239997
0.08948135 0.092810124 0.06487313 -0.12015386 -0.07811628 -0.09502773 -0.08168829 0.0018288159
0.079672 0.028520172 0.00086294266 -0.09148806 0.061238773 -0.06714808 0.07905082 -0.06081089
0.048200075 0.05677977 0.07597534 -0.12155024 -0.059879802 -0.030661922 0.025537595 0.016992047
-0.107402496 0.056399465 0.03933777 0.0748415 0.094849974 0.021520615 -0.03386441 0.108995035
-0.07119787 -0.11195194 -0.04348533 -0.09529508 -0.060782075 -0.08672172 -0.110155754 -0.09135661
0.014199838 -0.09980604 -0.10535958 0.09687011 -0.09069636 -0.09473593 0.08963366 -0.023624152
-0.011739753 -0.10857437 0.005525537 0.10775092 0.083070025 -0.07969944 0.0948686 -0.1039761
-0.050985187 0.06800935 0.06896341 0.004086487 -0.1064692 -0.04510335 0.013939142 0.064275384
0.077879146 0.07016499 0.040541813 0.105546266 0.01517874 0.012850091 -0.010710843 0.069545686
-0.061451465 0.06632806 0.02304238 -0.1061264 0.046907857 -0.05242354 -0.07689723 0.017356426
-0.0953581 0.11119428 -0.0867215 0.0091719255 -0.0023472458 -0.07830997 -0.08111493 -0.07754422
0.0955818 -0.063463494 0.09849389 -0.025273874 0.020587534 0.08168046 -0.08297382 -0.04733649
-0.0056006163 0.09517763 0.09425714 0.0054789563 0.091114804 -0.08554761 -0.086809985 0.002289965
-0.093121946 0.015063295 -0.11213479 0.06712026 -0.040203154 0.0023260494 0.040288478 0.034369
0.021915132 0.03899251 0.017181123 0.010416248 0.042156626 0.018446345 -0.02892989 0.027503695
0.08289052 -0.095671155 -0.0011881583 0.09259436 -0.08523182 0.071094155 -0.08472969 0.014707039
00000000: 7982 143c ac13 363c b933 683a 9928 3a3d
00000010: 2c3c c13d 31be b63d a3b5 98bd 45cb 94bd
00000020: c82f 593d 97d8 e8bd 0002 10bc cc72 773c
00000030: 1126 6a3d 2efb 803d 865f 6c3c 6417 b2bc
00000040: 98f7 6e3d 6253 bd3d 3d9b 9b3d 756a d3bc
00000050: 3d3d ddbc e169 c8bd b46a f33a d2ce b0bc
00000060: d6a3 b0bd e510 c23c e954 723d 0bd2 98ba
00000070: 1fd9 2e3c 1e3f c8bd 59a8 c73d 767b 54bd
00000080: 955a 15bd 666b bdbd 6899 1bbd 84c2 3b3d
00000090: 6633 793d ce6d 8abc 6de8 21bd 9f82 4a3d
000000a0: 6904 d9bd 7a52 66bd 9f5e 00bd 130d 38bb
000000b0: 2849 6f3c a245 0c3d cf54 34bc 76d2 40bd
000000c0: f657 e43c f06e 50bc 292e aabc 5976 953d
000000d0: 61a9 333d b75a c23d e47a cd3d 0385 2cbc
000000e0: fb6b 8a3d 8f90 90bd a8e7 003d 9374 8abd
000000f0: 62e1 bc3d fe43 a63d f3c5 53bd cc6d a4bd
00000100: a564 39bd 8d5e bf3d a8f0 e8bd 44b9 aaba
00000110: f487 68bd 20ff 2d3d e4a3 703d e1b8 b4bd
00000120: d187 30bc 02cb a4bd 0072 ef3b f432 ba3d
00000130: 57c4 ce3d 14e9 cc3c a0f6 0e3d 2626 cd3d
00000140: f862 b6bd d56a 7cbd fe96 4cbd 2af6 9dbd
00000150: b5a0 d7bd d817 c4bd 93cc c2bc c0a8 423d
00000160: 0ea3 b9bd d0a8 943c 8d33 fabc b613 953d
00000170: 6008 6bbc 0896 8abc 9755 3abd e77f 8ebd
00000180: fb26 5abd 4c9f 043a 7d2f 843d 3e20 3e3d
00000190: 8a4f 7b3c 01f6 97bd 79d7 99bd 7cd8 483d
000001a0: a9f7 ba3c 403c c63c 5805 813d 8af4 87bd
000001b0: 9edb 8a3d 1b2e adbd 8212 9b3d 5326 c8bb
000001c0: 7c76 43bd 603e aa3d e977 49bd ffc6 0abd
000001d0: a0ab e3bd f37d be3d e993 59bd 3fdc 543b
000001e0: c1a4 59bc 6bf3 33bc e62d 03bd 7b20 8b3d
000001f0: ba19 7a3d 4d1b 7ebc d412 823c 51c1 a8bd
00000200: ff41 b73d 3c13 be3d 34dc 843d 3a13 f6bd
00000210: 6efb 9fbd e69d c2bd 314c a7bd e1b4 ef3a
00000220: 132b a33d 23a3 e93c 1a37 623a 185e bbbd
00000230: 82d5 7a3d ef84 89bd 65e5 a13d d714 79bd
00000240: 716d 453d e791 683d f698 9b3d 55ef f8bd
00000250: 8644 75bd b62e fbbc 3834 d13c e832 8b3c
00000260: d7f5 dbbd 2003 673d a420 213d 8046 993d
00000270: b440 c23d 004c b03c 68b5 0abd ca38 df3d
00000280: 30d0 91bd 0f47 e5bd ac1d 32bd 112a c3bd
00000290: a0f6 78bd 289b b1bd 5799 e1bd 2d19 bbbd
000002a0: 70a6 683c 1c67 ccbd c3c6 d7bd d663 c63d
000002b0: 03bf b9bd e904 c2bd da91 b73d 7087 c1bc
000002c0: 1858 40bc 3d5c debd 900f b53b 84ac dc3d
000002d0: 9e20 aa3d 7639 a3bd 784a c23d 6cf1 d4bd
000002e0: d8d5 50bd 7c48 8b3d b03c 8d3d f0e7 853b
000002f0: 860c dabd 4abe 38bd 0061 643c d0a2 833d
00000300: 1a7f 9f3d aab2 8f3d 2c0f 263d a428 d83d
00000310: 40b0 783c 3089 523c 887c 2fbc f86d 8e3d
00000320: 88b4 7bbd 02d7 873d 60c3 bc3c cc58 d9bd
00000330: 7422 403d 11ba 56bd 4c7c 9dbd 102f 8e3c
00000340: 1c4b c3bd d4b9 e33d 0b9b b1bd d845 163c
00000350: 40d4 19bb fa60 a0bd 961f a6bd 81cf 9ebd
00000360: 64c0 c33d 26f9 81bd 2ab7 c93d 280b cfbc
00000370: 30a7 a83c 1648 a73d 2eee a9bd e8e3 41bd
00000380: 6085 b7bb 7dec c23d e309 c13d d188 b33b
00000390: 669a ba3d 9633 afbd 6fc9 b1bd 3d13 163b
000003a0: b8b6 bebd 0acc 763c eda6 e5bd 5976 893d
000003b0: 10ac 24bd a270 183b 8805 253d 82c6 0c3d
000003c0: 5d87 b33c 9cb6 1f3d 6dbf 8c3c e9a8 2a3c
000003d0: 6dac 2c3d ca1c 973c 60fe ecbc 6e4f e13c
000003e0: 81c2 a93d 3def c3bd fabb 9bba 1da2 bd3d
000003f0: 058e aebd d099 913d c286 adbd cbf5 703c

StatefulPartitionedCall/model_1/conv2d_9/BiasAdd/ReadVariableOp:0 f4 [16]
0.026462492 -0.0030253541 0.0 0.0061856383 0.02270328 0.011425636 0.009679025 0.008617787
0.005561506 0.0003982689 0.03237343 -0.0003086682 0.010207223 1.7402053e-05 0.008409673 -0.0005658799
00000000: dec7 d83c 0545 46bb 0000 0000 e5b0 ca3b
00000010: 3bfc b93c 9732 3b3c c694 1e3c 9e31 0d3c
00000020: 4b3d b63b bfce d039 009a 043d bfd4 a1b9
00000030: 323c 273c a0fa 9137 bac8 093c 8f57 14ba

StatefulPartitionedCall/model_1/conv2d_13/Conv2D/ReadVariableOp:0 f4 [16, 16, 10, 10]
0.021103114 0.04723412 0.016576977 0.00050632603 0.0049037626 0.03075085 -0.0045221886 0.04494758
0.013134509 -0.024271462 0.053064935 -0.0029308393 -0.01501017 0.055091694 0.007404727 0.01436877
0.04738335 -0.030778473 -0.00019111313 0.04951403 0.010887144 0.0545362 0.040924422 -0.01886279
0.037271783 0.010571515 -0.014139804 0.035416283 -0.016013656 0.04881633 -0.020163279 -0.018623311
0.018007938 0.013800816 -0.022009876 -0.037837893 0.007126899 -0.018822674 -0.00365328 -0.00407403
0.03646298 0.02697911 -0.019808486 0.013880037 -0.0117749665 0.0051105605 -0.014490646 -0.033512294
-0.02169834 0.023267416 0.045631517 -0.02294718 0.0016022956 0.0038958932 -0.03629247 0.0056305886
0.02337071 -0.029150909 -0.026770258 0.018153679 0.053425547 0.006296899 0.02208124 0.031725653
-0.0026941835 -0.011334074 -0.026095547 -0.012225393 0.037727036 -0.01731417 0.053550415 0.023166463
-0.03567835 -0.027955128 -0.03342415 0.014230414 0.018768944 0.03649004 0.044392474 -0.0022123011
0.05446948 0.0346717 -0.020173924 0.048084393 0.022963654 0.04133501 0.014027974 0.008701761
-0.017752526 0.030393066 0.034977496 -0.012119489 0.049423326 0.05003654 0.030007152 -0.008873949
-0.01702845 -0.03780001 0.04698205 -0.01841283 0.027878597 0.0050147753 0.00053414213 0.0104960045
0.037245117 -0.014025054 -0.007072316 -0.01112151 0.032704815 0.021032788 0.015408473 0.01337711
0.014933221 0.016867334 0.051041342 -0.0013989833 -0.0026519184 -0.023674719 -0.015057503 0.019084105
0.01240734 0.011097668 0.048820786 -0.035520516 0.036257505 0.024668481 0.044021178 -0.038931105
-0.024951184 0.024565853 0.016481835 0.001679125 0.04765957 0.011381949 0.0069115227 -0.012422559
0.026662907 -0.038714863 -0.0017444436 -0.023425551 -0.0048783966 0.05109209 0.0033147307 0.028855775
-0.034133606 -0.04809234 -0.038213424 -0.0058510876 -0.027781911 0.046151333 0.052691817 -0.0050537284
-0.019196702 -0.024496114 -0.0023987126 0.023392936 0.009071354 0.029889641 0.043076273 0.0056574442
0.03911972 -0.0008935639 0.00853488 0.008483181 0.028666636 0.00041857912 -0.0016597538 0.022242052
0.03490974 -0.0023360515 0.0074049234 -0.016371118 0.0041439733 0.02472326 -0.010460917 -0.039414804
0.018647598 0.030337216 0.0111868745 -0.0040076813 0.00026128202 0.0019371314 0.029979853 -0.022909509
-0.0056005605 -0.0264221 0.011488597 -0.015501912 0.018872393 0.052798614 0.048840497 0.0011164702
0.012051382 0.024659073 0.039941743 0.039078716 0.047325112 -0.0246927 -0.030221403 0.0033605224
-0.00427632 0.051217474 -0.010616125 0.03249394 -0.02254408 0.026725154 0.005373643 0.004096124
0.032132145 0.029884892 0.05937559 -0.014358779 0.051299013 -0.014709125 -0.025181958 0.019197842
-0.018172292 -0.010003846 0.013034172 -0.020579342 0.013035118 0.04448898 0.05641879 -0.00026775745
0.044452354 0.057649706 0.040076964 0.021384528 0.0046570217 -0.016758088 -0.022914376 0.044657126
0.03700265 0.04941695 0.008013694 0.057170585 -0.012733096 -0.0012400296 -0.019279165 0.013770268
0.045120347 0.0012858682 0.040733058 -0.0023112213 0.020937586 -0.011003018 0.004284081 0.04511836
0.004300073 0.030964477 0.032996424 0.045325927 -0.0024620576 0.029872574 0.034951363 -0.015271432
00000000: 70e0 ac3c 9178 413d 71cc 873c f7ba 043a
00000010: beaf a03b 35e9 fb3c de2e 94bb f41a 383d
00000020: 2032 573c f2d4 c6bc 9e5a 593d 5313 40bb
00000030: 37ed 75bc d4a7 613d 5aa3 f23b fd6a 6b3c
00000040: 0b15 423d 2323 fcbc 8a65 48b9 39cf 4a3d
00000050: fe5f 323c 5a61 5f3d 5ea0 273d 2386 9abc
00000060: 4caa 183d 2634 2d3c a3aa 67bc aa10 113d
00000070: 122f 83bc a2f3 473d 762d a5bc ea8f 98bc
00000080: 6285 933c d11c 623c 0e4e b4bc e8fb 1abd
00000090: c388 e93b 0232 9abc de6b 6fbb 717f 85bb
000000a0: 355a 153d 4b03 dd3c 6845 a2bc 1869 633c
000000b0: caeb 40bc 7d76 a73b 2d6a 6dbc 3044 09bd
000000c0: b8c0 b1bc 4f9b be3c 1de8 3a3d b9fb bbbc
000000d0: 1e04 d23a 3e52 7f3b 6aa7 14bd cd80 b83b
000000e0: ee73 bf3c e3cd eebc 4d4d dbbc 06b7 943c
000000f0: bfd4 5a3d 3856 ce3b b7e3 b43c c2f2 013d
00000100: e690 30bb 8db2 39bc 54c6 d5bc 044d 48bc
00000110: aa87 1a3d 72d6 8dbc ae57 5b3d 98c7 bd3c
00000120: 7623 12bd 2702 e5bc c3e7 08bd af26 693c
00000130: 54c1 993c 9576 153d e2d4 353d 41fc 10bb
00000140: 641b 5f3d ea03 0e3d c943 a5bc 24f4 443d
00000150: 461e bc3c e64e 293d 96d5 653c d591 0e3c
00000160: bf6d 91bc e1fa f83c 9044 0f3d d290 46bc
00000170: 1d70 4a3d 1df3 4c3d 8fd1 f53c 0a64 11bc
00000180: 3f7f 8bbc 2fd4 1abd 4070 403d 81d6 96bc
00000190: a861 e43c fc52 a43b ac05 0c3a 6ff7 2b3c
000001a0: 568e 183d 57c9 65bc e3be e7bb fe36 36bc
000001b0: 7cf5 053d f44c ac3c d273 7c3c aa2b 5b3c
000001c0: 78aa 743c 5d2d 8a3c ba10 513d 175e b7ba
000001d0: cfcb 2dbb 7cf1 c1bc bfb3 76bc 4556 9c3c
000001e0: 2848 4b3c fed2 353c 4ef8 473d f67d 11bd
000001f0: c082 143d 8e15 ca3c 8d4f 343d 3976 1fbd
00000200: 6d66 ccbc 543e c93c ea04 873c 1616 dc3a
00000210: ae36 433d 5b7b 3a3c 0e7a e23b fd87 4bbc
00000220: 2b6c da3c 7a93 1ebd d0a5 e4ba f1e6 bfbc
00000230: f5da 9fbb f045 513d f43b 593b f262 ec3c
00000240: aecf 0bbd 79fc 44bd ae85 1cbd 7bba bfbb
00000250: e496 e3bc 2e09 3d3d 60d3 573d bf99 a5bb
00000260: 6742 9dbc 13ac c8bc b833 1dbb 8ba2 bf3c
00000270: 04a0 143c 1fdb f43c bf70 303d 1562 b93b
00000280: 003c 203d 0f3e 6aba e2d5 0b3c 0afd 0a3c
00000290: 4bd6 ea3c bd74 db39 198c d9ba f734 b63c
000002a0: 84fd 0e3d 7118 19bb 00a5 f23b b91c 86bc
000002b0: 2bca 873b 6f88 ca3c 4464 2bbc 6b71 21bd
000002c0: d9c2 983c c185 f83c 2749 373c de52 83bb
000002d0: aefc 8839 58e7 fd3a 4f98 f53c b9ac bbbc
000002e0: e884 b7bb 2973 d8bc ab3a 3c3c bbfb 7dbc
000002f0: 479a 9a3c 5c43 583d f90c 483d 8656 923a
00000300: 2973 453c d301 ca3c f499 233d 0111 203d
00000310: fad7 413d 5848 cabc e092 f7bc 363c 5c3b
00000320: 5f20 8cbb 6ac9 513d 41ef 2dbc 5e18 053d
00000330: 5dae b8bc b6ee da3c 6215 b03b c738 863b
00000340: ff9c 033d 29d1 f43c d233 733d 1641 6bbc
00000350: ea1e 523d 8bfe 70bc 654a cebc cb44 9d3c
00000360: 0fde 94bc 2ce7 23bc 488d 553c 0296 a8bc
00000370: 3f91 553c 143a 363d 6417 673d cc61 8cb9
00000380: ac13 363d 1922 6c3d be27 243d 9b2e af3c
00000390: ee99 983b 4248 89bc eeb6 bbbc 64ea 363d
000003a0: 1790 173d 6e69 4a3d de4b 033c b42b 6a3d
000003b0: 7a9e 50bc 7d88 a2ba 57ef 9dbc b19c 613c
000003c0: 1dd0 383d 948a a83a b5d7 263d dc77 17bb
000003d0: 4d85 ab3c 0146 34bc 7a61 8c3b 08ce 383d
000003e0: a0e7 8c3b 37a9 fd3c 4227 073d aea7 393d
000003f0: 795a 21bb 54b7 f43c 2929 0f3d 0735 7abc

StatefulPartitionedCall/model_1/conv2d_13/BiasAdd/ReadVariableOp:0 f4 [16]
0.0061613806 0.008006796 -0.0039984705 -0.007050514 0.0017513052 0.009962186 -0.0144182835 0.007064577
0.009454598 0.022246325 0.0047700065 -0.014012938 0.0036573943 0.0060267504 0.012077764 -0.017531008
00000000: 68e5 c93b f02e 033c 9a05 83bb 0008 e7bb
00000010: 0d8c e53a 7038 233c aa3a 6cbc f87d e73b
00000020: 75e7 1a3c ed3d b63c b74d 9c3b 8696 65bc
00000030: e5b0 6f3b 0c7c c53b d0e1 453c 309d 8fbc

StatefulPartitionedCall/model_1/conv2d_12/Conv2D/ReadVariableOp:0 f4 [16, 16, 10, 10]
0.011108316 -0.01410208 0.020992301 -0.033024594 0.030617325 0.019230971 -0.050710708 -0.009842022
-0.009976705 0.021684237 -0.03188682 -0.03004545 -0.028876688 -0.049635645 0.01261285 0.0075405235
-0.02030427 0.016878797 -0.009430979 -0.044081457 0.040417515 -0.0030958713 -0.022660423 0.017916849
-0.0048326547 -0.024230108 0.009051305 -0.04703261 -0.040692035 0.029356098 0.022606514 -0.03274501
0.015770838 -0.051384263 -0.037140004 -0.034817465 -0.023511056 0.011948693 -0.00407026 0.0052739074
-0.002076671 -0.03592358 -0.011882035 -0.028094545 -0.0250888 -0.02589431 -0.039736096 0.043466408
-0.0012433631 -0.027426595 -0.023505837 0.008487678 0.038042955 -0.0076838573 0.035898022 0.023204405
-0.04718593 -0.0019317807 0.029065467 -0.046408765 -0.031237185 -0.006348056 0.029531451 -0.053997267
-0.030501803 -0.039478905 0.023241518 0.029298794 0.009727585 -0.013309864 0.00010740406 -0.0038957016
-0.006935596 -0.025564346 -0.014511421 0.010730311 0.032982115 0.0057907337 -0.02225279 -0.029647036
0.017012442 0.031111749 0.03615888 0.011290019 -0.0028315908 -0.025680281 0.0071291802 0.024104713
0.023464631 -0.008224757 -0.02319134 0.01833785 -0.025607849 -0.0028909293 0.028991597 -0.026876219
0.02394086 0.038547095 0.03225104 -0.02679924 -0.03431296 -0.009768071 0.015954923 -0.035934016
-0.018267605 0.035884984 0.01128696 0.03281982 -0.040565822 -0.03160108 -0.037648227 0.038169704
0.026283814 -0.040129766 0.044364657 0.0021344745 -0.021143131 -0.0023889244 -0.013907036 -0.016999416
-0.05306755 -0.01472435 -0.030860247 0.0054313447 0.031219207 -0.014721725 0.0076332865 0.007897569
-0.0009697965 -0.012058753 -0.010931872 0.024087237 -0.011939314 0.028365266 0.012361588 -0.03131459
0.019371528 -0.029733019 -0.0094588045 -0.01407397 -0.055561606 -0.028274033 0.04814043 -0.016698996
0.007053091 0.020900255 -0.0111802565 -0.011486884 0.030931272 -0.015925245 0.012459254 -0.0029001527
-0.017906161 -0.023327654 0.020556 -0.027132288 0.028847223 -0.021502243 -0.023984406 -0.02972666
-0.024551407 -0.02558126 -0.0012359389 -0.03753392 -0.03253397 0.0035055934 -0.022921924 0.02083677
0.031503834 0.015420885 0.024632238 0.028552417 -0.010654942 -0.02092073 0.046290513 -0.019607397
-0.01490533 0.010155619 0.01817415 -0.034261275 -0.030590411 -0.00471675 0.02354633 0.00766778
-0.0056928806 -0.019378254 -0.023870375 -0.032361567 -0.03601928 0.0072916546 0.03712868 0.012526768
0.050818607 -0.012158033 -0.019955497 -0.012558629 0.0058264104 -0.014809509 0.026123663 -0.02346272
-0.0073331436 0.0013019451 -0.019756481 0.019961184 0.0048347414 -0.027699662 0.02696499 -0.03397779
0.024171764 0.016570149 0.011545962 -0.011659511 -0.013356571 0.0372116 0.017038243 -0.025493499
-0.0088325525 0.0045829006 0.032414384 0.002903237 0.0070058247 -0.028702999 -0.045457132 -0.03576488
-0.019652467 -0.014433186 -0.016689047 0.020404104 -0.019377716 -0.011080992 -0.0034628566 -0.011873596
-0.03469927 0.039149936 0.02884805 0.039293423 0.019054955 0.04011925 -0.00020872836 -0.03565794
0.019899458 -0.018416297 0.038395397 -0.010936431 0.043378975 0.01792664 0.025289971 -0.0032283468
0.013707722 0.024965324 0.053272717 0.00024239419 -0.0051235026 0.042486977 0.035287004 0.043629177
00000000: a7ff 353c 690c 67bc 0cf8 ab3c cc44 07bd
00000010: 2fd1 fa3c 458a 9d3c 08b6 4fbd 6f40 21bc
00000020: 5575 23bc 24a3 b13c c19b 02bd e021 f6bc
00000030: ce8e ecbc bf4e 4bbd 21a6 4e3c 7f16 f73b
00000040: 2455 a6bc 6745 8a3c 6584 1abc c28e 34bd
00000050: d68c 253d 1ae4 4abb 5aa2 b9bc 5bc6 923c
00000060: 3f5b 9ebb 387e c6bc ed4b 143c 44a5 40bd
00000070: b1ac 26bd 337c f03c 4c31 b93c a21f 06bd
00000080: d831 813c 4e78 52bd 1e20 18bd c29c 0ebd
00000090: 429a c0bc 73c4 433c d15f 85bb bed0 ac3b
000000a0: c218 08bb 9b24 13bd deac 42bc 8826 e6bc
000000b0: 0787 cdbc 4e20 d4bc 51c2 22bd d509 323d
000000c0: 58f8 a2ba bdad e0bc 508f c0bc e70f 0b3c
000000d0: eed2 1b3d dec8 fbbb ce09 133d 2a17 be3c
000000e0: 0946 41bd ce33 fdba b41a ee3c 1e17 3ebd
000000f0: 20e5 ffbc 5a03 d0bb f1eb f13c 3d2c 5dbd
00000100: ebde f9bc a2b4 21bd ff64 be3c 0604 f03c
00000110: 7360 1f3c 9e11 5abc 1e3e e138 074f 7fbb
00000120: ff43 e3bb 526c d1bc 50c1 6dbc 30ce 2f3c
00000130: 4118 073d 32c0 bd3b 7c4b b6bc 57de f2bc
00000140: ad5d 8b3c 11de fe3c 551b 143d c6f9 383c
00000150: 3692 39bb 745f d2bc e69b e93b 3f77 c53c
00000160: e638 c03c 22c1 06bc c4fb bdbc 4239 963c
00000170: 8dc7 d1bc bf75 3dbb c97f ed3c 842b dcbc
00000180: 9f1f c43c 8fe3 1d3d ab19 043d 148a dbbc
00000190: bf8b 0cbd 420a 20bc e6b3 823c 8c2f 13bd
000001a0: f2a5 95bc 22fc 123d f1ec 383c 136e 063d
000001b0: 5928 26bd 2270 01bd 0735 1abd d657 1c3d
000001c0: 2751 d73c 1c5f 24bd b7b7 353d 8ae2 0b3b
000001d0: 5c34 adbc 808f 1cbb 56da 63bc 5c42 8bbc
000001e0: 5c5d 59bd 663e 71bc a1ce fcbc 6cf9 b13b
000001f0: 6cbf ff3c 6433 71bc a620 fa3b ce64 013c
00000200: f139 7eba 1392 45bc 981b 33bc 9952 c53c
00000210: 1d9d 43bc 465e e83c 4288 4a3c ba43 00bd
00000220: 0ab1 9e3c a992 f3bc 1af9 1abc 8296 66bc
00000230: 9194 63bd f29e e7bc e62e 453d 55cc 88bc
00000240: 9e1d e73b 0337 ab3c 652d 37bc 7c33 3cbc
00000250: 9463 fd3c a975 82bc e621 4c3c 7d10 3ebb
00000260: f1af 92bc a319 bfbc 0e65 a83c 8844 debc
00000270: 0351 ec3c 7925 b0bc f27a c4bc 5385 f3bc
00000280: 0820 c9bc ca8f d1bc 3aff a1ba 2bbd 19bd
00000290: 5742 05bd 19be 653b c2c6 bbbc e0b1 aa3c
000002a0: 2a0a 013d e1a7 7c3c 8cc9 c93c c2e6 e93c
000002b0: 1192 2ebc f361 abbc 1f9b 3d3d b19f a0bc
000002c0: 7c35 74bc c163 263c f4e1 943c 8d55 0cbd
000002d0: be98 fabc f78e 9abb 3ce4 c03c 0042 fb3b
000002e0: 588b babb 25bf 9ebc ce8b c3bc 908d 04bd
000002f0: f488 13bd d5ee ee3b 3e14 183d 133d 4d3c
00000300: 2c27 503d 7d32 47bc b679 a3bc b5c2 4dbc
00000310: 79eb be3b 95a3 72bc 4b01 d63c e434 c0bc
00000320: de4a f0bb 07a6 aa3a 58d8 a1bc a385 a33c
00000330: c06c 9e3b 67ea e2bc afe5 dc3c 4c2c 0bbd
00000340: dd03 c63c 1fbe 873c 462b 3d3c 8907 3fbc
00000350: 85d5 5abc 316b 183d c993 8b3c bed7 d0bc
00000360: 69b6 10bc 282c 963b f2c4 043d 3c44 3e3b
00000370: 1e91 e53b 8d22 ebbc 4231 3abd 327e 12bd
00000380: 36fe a0bc 2b79 6cbc 78b7 88bc 8226 a73c
00000390: 04be 9ebc 0d8d 35bc 18f1 62bb 7989 42bc
000003a0: d220 0ebd af5b 203d bf52 ec3c 24f2 203d
000003b0: 2319 9c3c 1554 243d 18de 5ab9 0f0e 12bd
000003c0: 3004 a33c c6dd 96bc 7e44 1d3d b72e 33bc
000003d0: 27ae 313d e4da 923c ea2c cf3c ac92 53bb
000003e0: 5a96 603c 1484 cc3c 7e34 5a3d 322b 7e39
000003f0: 0ee3 a7bb d306 2e3d 1b89 103d 82b4 323d

StatefulPartitionedCall/model_1/conv2d_12/BiasAdd/ReadVariableOp:0 f4 [16]
-0.005733927 0.021399481 -0.01103943 0.018115217 -0.003592081 0.0033073537 -0.010579027 -0.010169099
0.0018223096 0.003726997 -0.017567655 0.007055444 -0.02296961 -0.009196478 0.0116395755 -0.0024886355
00000000: aae3 bbbb f74d af3c bade 34bc 5d66 943c
00000010: 1e69 6bbb 30c0 583b a853 2dbc 4b9c 26bc
00000020: 90da ee3a a240 743b 0bea 8fbc 5b31 e73b
00000030: c32a bcbc d3ac 16bc ebb3 3e3c 6018 23bb

StatefulPartitionedCall/model_1/conv2d_11/Conv2D/ReadVariableOp:0 f4 [16, 16, 10, 10]
0.0021684105 0.041862786 -0.025092207 0.010424869 0.014486235 -0.0073729646 -0.036089033 -0.02108143
0.0014791928 -0.018366294 0.016748205 0.02555148 0.041828614 -0.021330468 0.03850899 -0.03157379
0.017037274 -0.013937272 0.014002503 -0.0042020692 -0.008014791 -0.019527933 0.03134114 -0.023512742
-0.025721582 0.018337777 -0.008753438 0.032334402 0.040597536 -0.012311607 0.0063064443 -0.031359896
0.048598923 -0.004416011 0.019879289 -0.018597517 0.001479029 0.03078787 0.0032437108 -0.0022901697
-0.0039516264 0.020830844 -0.010517997 0.04946028 0.017010115 0.015159432 -0.01437303 0.033742346
-0.033749778 0.018143926 0.037278708 0.010233184 0.020327788 0.016412497 0.040773116 0.007244906
0.04738269 -0.0057992185 0.04759462 -0.010090131 0.0010587337 -0.035543807 0.024124896 0.010859646
0.03476636 -0.023238968 0.02531741 0.024784964 0.02504675 0.03531783 0.043055817 0.02489239
0.032561146 -0.02232267 0.049658127 0.030445758 -0.02164106 -0.019758578 0.006564254 0.045053847
-0.031138971 0.030671338 -0.01543725 0.014873796 -0.007832162 0.029468063 -0.039264984 -0.043541305
-0.0048243725 -0.037948962 -0.015690986 0.0133345965 0.042394638 -0.00048680074 0.0019525504 -0.037350755
0.018279904 0.026412567 -0.009057174 0.037989534 -0.037303817 0.041505594 -0.019755092 -0.009266318
-0.031428188 -0.058893703 -0.040093675 -0.03251561 -0.04623587 0.025665075 -0.00076333433 -0.02932695
-0.025464572 -0.0561001 0.026804214 0.00504154 0.0044866414 -0.04561621 -0.027691381 -0.037245173
-0.0034183043 0.040251106 0.01204945 -0.024932852 -0.02239796 -0.032511037 -0.02062438 0.018826319
-0.029273322 -0.026302315 -0.024144707 -0.025242219 -0.01922479 -0.029550975 0.003175033 -0.015748085
-2.159152e-05 0.0037486013 0.016796567 -0.010565072 -0.009818498 -0.02839426 -0.02254713 -0.035190176
-0.0044641574 -0.037675913 -0.038897254 0.021735782 0.010307686 -0.061268978 -0.020988312 0.045322
-0.037636377 0.025537895 0.004208774 -0.048082553 0.019245252 0.0031936653 -0.052554395 -0.050933756
0.0371249 0.024895584 0.032025006 0.029205589 0.03533273 -0.005479889 0.006698509 -0.044914797
-0.028803334 0.01825438 0.029693058 -0.010283088 -0.03152082 -0.03777747 -0.04054037 0.00035488268
-0.0102172205 -0.029154697 -0.023564454 -0.026180446 0.026591681 -0.009801686 0.0018496725 -0.046635646
0.006539683 0.02553829 0.017057724 0.03905136 0.017093472 -0.04554134 0.024934325 0.016673755
0.04429357 -0.020156788 -0.013616606 -0.0075319535 -0.020546002 0.035244845 -0.017962668 0.0138430055
0.036772028 0.023248134 -0.023630245 -0.008671486 -0.025979681 -0.020411467 -0.0031813122 0.044052012
0.017895438 0.0028871794 -0.01865728 -0.009036358 0.02271778 -0.041225657 0.0008458677 -0.006207582
-0.031164192 0.0102497125 0.017069137 0.01551441 0.04208958 0.0092847925 0.0037060948 0.041998014
0.0402852 -0.020118225 -0.015809186 -0.014401507 0.02203916 0.042569898 -0.027279792 0.008487425
0.0074239727 -0.03811024 0.029804984 -0.038260154 0.027291689 -0.024754874 0.0310661 0.020529732
0.0059844474 -0.01070654 0.014099784 -0.029615879 -0.022482267 -0.004689264 -0.038647443 -0.023905778
0.033348855 0.016546022 -0.03285418 0.026945317 -0.0004551317 -0.023773326 0.008519366 0.038620744
00000000: e41b 0e3b 5078 2b3d 2c8e cdbc 12cd 2a3c
00000010: ac57 6d3c e998 f1bb 18d2 13bd f7b2 acbc
00000020: 79e1 c13a e974 96bc 8833 893c 5651 d13c
00000030: 7b54 2b3d 3cbd aebc 9abb 1d3d 8553 01bd
00000040: c191 8b3c 2859 64bc c16a 653c 83b1 89bb
00000050: 7850 03bc 0bf9 9fbc 915f 003d cb9d c0bc
00000060: 11b6 d2bc 1b39 963c 946a 0fbc 1471 043d
00000070: 9a49 263d 9fb6 49bc 4aa6 ce3b 3c73 00bd
00000080: aa0f 473d 2fb4 90bb e4d9 a23c d259 98bc
00000090: fadb c13a d836 fc3c 7094 543b ac16 16bb
000000a0: a57c 81bb 72a5 aa3c ad53 2cbc dd96 4a3d
000000b0: cc58 8b3c 445f 783c db7c 6bbc 6a35 0a3d
000000c0: 353d 0abd 92a2 943c 8fb1 183d 16a9 273c
000000d0: 7686 a63c 8073 863c b601 273d ad66 ed3b
000000e0: 5a14 423d 5f07 bebb 94f2 423d 1451 25bc
000000f0: 35c5 8a3a 6296 11bd 93a1 c53c a8ec 313c
00000100: 2c67 0e3d a65f bebc 7566 cf3c d609 cb3c
00000110: d82e cd3c 6ea9 103d 4c5b 303d 20eb cb3c
00000120: d65e 053d 08de b6bc 5266 4b3d 6269 f93c
00000130: 9848 b1bc bedc a1bc f418 d73b 628a 383d
00000140: 2817 ffbc 7542 fb3c 85ec 7cbc 39b1 733c
00000150: 7852 00bc 0267 f13c 52d4 20bd 5e58 32bd
00000160: c515 9ebb 5f70 1bbd 628a 80bc 5a79 5a3c
00000170: 00a6 2d3d 4a39 ffb9 b8ec ff3a 1bfd 18bd
00000180: bdbf 953c 2b5f d83c 8b64 14bc ea9a 1b3d
00000190: e3cb 18bd c501 2a3d 6ed5 a1bc c1d1 17bc
000001a0: d8ba 00bd 863a 71bd 4439 24bd 172f 05bd
000001b0: d361 3dbd 903f d23c 801a 48ba 123f f0bc
000001c0: 149b d0bc 38c9 65bd 8394 db3c 8133 a53b
000001d0: ad04 933b 10d8 3abd 09d9 e2bc 658e 18bd
000001e0: a105 60bb 58de 243d 0e6b 453c fb3f ccbc
000001f0: ed7b b7bc 4b2a 05bd 76f4 a8bc a739 9a3c
00000200: 9bce efbc f477 d7bc 1fcb c5bc c5c8 cebc
00000210: 4f7d 9dbc e314 f2bc 3714 503b 2102 81bc
00000220: 701f b5b7 18ab 753b f498 893c 2019 2dbc
00000230: c4dd 20bc 149b e8bc c2b4 b8bc 9323 10bd
00000240: 1148 92bb 0f52 1abd ba52 1fbd 3d0f b23c
00000250: 92e1 283c 2ef5 7abd aeef abbc 90a3 393d
00000260: 9a28 1abd d934 d13c c1e9 893b 36f2 44bd
00000270: 38a8 9d3c d04c 513b 4743 57bd ea9f 50bd
00000280: 4710 183d d3f1 cb3c a72c 033d 8f40 ef3c
00000290: 0db9 103d a490 b3bb 2b7f db3b 94f8 37bd
000002a0: f8f4 ebbc 368a 953c db3e f33c 667a 28bc
000002b0: fa1b 01bd 8cbc 1abd a90d 26bd 8c0f ba39
000002c0: 2166 27bc d5d5 eebc 3e0a c1bc 6078 d6bc
000002d0: ccd6 d93c 4097 20bc b670 f23a 0505 3fbd
000002e0: d64a d63b ad35 d13c a4bc 8b3c 52f4 1f3d
000002f0: 9c07 8c3c 8e89 3abd 1243 cc3c 6697 883c
00000300: 2d6d 353d d91f a5bc 2f18 5fbc 9bce f6bb
00000310: 1750 a8bc e65c 103d 7226 93bc c6cd 623c
00000320: 449e 163d df72 be3c 3794 c1bc d912 0ebc
00000330: 57d3 d4bc f335 a7bc 907d 50bb e26f 343d
00000340: 7499 923c d536 3d3b 27d7 98bc 3c0d 14bc
00000350: a31a ba3c 3cdc 28bd 38bd 5d3a f968 cbbb
00000360: 0c4c ffbc 69ee 273c 93d4 8b3c 2730 7e3c
00000370: 2066 2c3d 3e1f 183c f4e1 723b 1c06 2c3d
00000380: 1802 253d face a4bc 4482 81bc 4cf4 6bbc
00000390: 788b b43c c65d 2e3d df79 dfbc d70e 0b3c
000003a0: cc44 f33b 7c19 1cbd 9529 f43c aeb6 1cbd
000003b0: d292 df3c bcca cabc 557e fe3c f82d a83c
000003c0: 2f19 c43b 7c6a 2fbc c802 673c 009d f2bc
000003d0: bb2c b8bc 66a8 99bb c84c 1ebd 0dd6 c3bc
000003e0: cf98 083d 868b 873c 1b92 06bd 6dbc dc3c
000003f0: be9e eeb9 47c0 c2bc d094 0b3c c930 1e3d

StatefulPartitionedCall/model_1/conv2d_11/BiasAdd/ReadVariableOp:0 f4 [16]
0.008046955 -0.023653425 0.014718071 -0.015254749 -0.022130439 0.013119098 -0.01141367 -0.0029221233
-0.009838269 -0.010725332 -0.011043049 0.0021140017 -0.011507655 -0.0009163578 -0.0104080355 0.0037156425
00000000: 60d7 033c d4c4 c1bc 1024 713c 0eef 79bc
00000010: e54a b5bc 7cf1 563c 6700 3bbc 1881 3fbb
00000020: b130 21bc 4eb9 2fbc e8ed 34bc 108b 0a3b
00000030: 9a8a 3cbc bb37 70ba 7786 2abc 2382 733b

StatefulPartitionedCall/model_1/conv2d_10/Conv2D/ReadVariableOp:0 f4 [16, 16, 10, 10]
0.02752601 -0.024490776 -0.03297019 -0.018080352 -0.033989783 -0.02832039 -0.00027340048 0.040498026
0.017935617 0.020857247 -0.008987985 -0.017862907 -0.033500716 0.016906925 -0.014393719 0.0076165195
0.030337896 0.028887935 -0.0105301235 0.020255461 -0.049417716 0.009066233 -0.04747111 -0.037922785
-0.049565796 0.014216245 -0.013669917 -0.027817208 0.0034030308 -0.026435712 0.021472245 -0.013825847
-0.07378655 -0.07927442 -0.049380083 0.0014600841 -0.023337401 -0.019063506 0.033762727 -0.0234237
-0.011085347 -0.057736818 -0.07013876 -0.01299177 0.005726402 -0.0006917062 0.021218466 -0.054019123
-0.05027051 -0.011771148 -0.050314125 -0.033220313 -0.016112262 -0.062676385 -0.0015246172 0.0043470026
-0.052234683 -0.02260832 -0.012571094 -0.027415205 -0.015027699 -0.04097269 -0.02328894 -0.01614781
-0.013489875 0.008617673 0.0008921558 -0.041777745 -0.003508333 -0.017472059 -0.0069600833 -0.019334048
0.007663844 0.013497175 0.028353667 -0.011671918 0.020738538 0.009542347 0.025000386 0.00025016099
-0.0042346166 -0.025139634 0.040605772 0.008222471 -0.01165704 0.04126358 0.009537333 -0.015974684
-0.017567562 0.00089145877 -0.04189488 0.0057961424 -0.008913689 0.012933088 -0.01475468 0.0022689188
0.03077013 0.04513834 -0.017300546 -0.032060057 -0.0008389517 -0.022260029 0.039739728 -0.0063142865
-0.03294364 -0.032882135 -0.005289248 0.010315337 0.012784442 0.02776124 -0.008498141 0.020807179
-0.020748736 -0.024413422 0.0003325175 -0.0024661296 -0.014320999 0.019749608 0.024368221 -0.0031386854
0.02223118 -0.0021213773 -0.04103689 -0.0049972055 0.0043865503 -0.0028039124 0.002629826 -0.042108476
0.014437354 -0.012471127 -0.031502597 -0.04487655 -0.038862787 -0.043153018 -0.012756375 0.0024049575
0.033734992 0.019492872 -0.04096622 -0.026752716 -0.023752604 -0.03862461 0.029629286 -0.02098618
0.020982072 -0.018582214 0.023339564 -0.045793775 -0.000105813204 0.008990354 -0.036827557 0.007962206
0.0053108516 0.0044660997 -0.046304435 0.034506444 0.025334025 -0.015267957 0.02720276 0.0072613927
-0.022053042 0.005131546 -0.010592656 0.038301636 -0.008614721 0.038196687 0.019469082 -0.010370824
0.0008785041 -0.0036434596 -0.0109744845 0.005432018 0.037785314 0.029759888 0.009603847 -0.03987746
-0.039712217 -0.04817964 -0.00954828 -0.004720754 0.0065802434 -0.02178295 0.041409522 -0.010112324
0.008524295 -0.013676118 -0.04020504 -0.0042700977 -0.003863799 -0.019318175 0.03215673 -0.019794496
-0.025220733 0.028289322 0.010558824 -0.010505205 0.005256871 -0.01558381 0.020790625 -0.019613406
-0.02911356 -0.03533258 0.0204654 -0.011222928 0.0036383807 0.024935652 -0.042742297 -0.0014573969
-0.029033208 0.038994517 -0.0008767381 0.031491764 0.025352811 -0.0031199271 -0.0045524896 -0.022591194
0.024843186 -0.010145838 -0.034853358 0.04230107 -0.02264937 0.026554912 0.0023024841 0.023388209
-0.026511993 0.027735408 -0.01904329 -0.038682222 0.04000381 -0.02199168 0.007060899 -0.028753508
0.01492733 -0.036211576 -0.026130233 0.026361363 0.016077051 0.023274597 -0.030719012 -0.016029524
-0.040944412 -0.016041882 0.029024424 -0.015281129 -0.035982013 -0.0002550447 0.005623176 0.032091603
0.018378647 -0.025437916 -0.02861389 0.03843114 0.0013712933 0.006090383 -0.00764882 0.01068151
00000000: 3a7e e13c e1a0 c8bc c00b 07bd 3f1d 94bc
00000010: df38 0bbd 2a00 e8bc 3157 8fb9 42e1 253d
00000020: b7ed 923c d1dc aa3c 5742 13bc 3b55 92bc
00000030: 0c38 09bd 6480 8a3c a2d3 6bbc ff93 f93b
00000040: 2e87 f83c 64a6 ec3c 8a86 2cbc c8ee a53c
00000050: 3b6a 4abd 8a8a 143c 1171 42bd ec54 1bbd
00000060: 8105 4bbd 41eb 683c caf7 5fbc eae0 e3bc
00000070: 6205 5f3b b58f d8bc 90e6 af3c ce85 62bc
00000080: 671d 97bd a15a a2bd c542 4abd 4b60 bf3a
00000090: 142e bfbc 122b 9cbc c94a 0a3d 0fe3 bfbc
000000a0: 519f 35bc 717d 6cbd e9a4 8fbd 6fdb 54bc
000000b0: 8ba4 bb3b 9e53 35ba 59d2 ad3c 2843 5dbd
000000c0: 73e8 4dbd c6db 40bc 2f16 4ebd 0612 08bd
000000d0: ddfd 83bc 7a5c 80bd aad5 c7ba 4d71 8e3b
000000e0: 09f4 55bd 1535 b9bc fdf6 4dbc da95 e0bc
000000f0: bd36 76bc fbd2 27bd 72c8 bebc 6948 84bc
00000100: a304 5dbc 2431 0d3c 90df 693a 241f 2bbd
00000110: 0fec 65bb 9021 8fbc 6911 e4bb 7062 9ebc
00000120: fc20 fb3b 4123 5d3c f345 e83c 933b 3fbc
00000130: dee3 a93c 8157 1c3c 9ccd cc3c 0a28 8339
00000140: 8ac2 8abb a2f1 cdbc 3d52 263d 8bb7 063c
00000150: 2bfd 3ebc 0004 293d 7942 1c3c 57dd 82bc
00000160: d9e9 8fbc c9b0 693a f799 2bbd 91ed bd3b
00000170: b90a 12bc 4de5 533c 9dbd 71bc 24b2 143b
00000180: a411 fc3c fbe2 383d e0b9 8dbc 6851 03bd
00000190: 18ed 5bba aa5a b6bc 20c6 223d 13e8 cebb
000001a0: e9ef 06bd 6baf 06bd 6e51 adbb a901 293c
000001b0: d675 513c 8a6b e33c c93b 0bbc d173 aa3c
000001c0: 41f9 a9bc a8fe c7bc be55 ae39 ca9e 21bb
000001d0: a0a2 6abc eec9 a13c dd9f c73c 67b2 4dbb
000001e0: 2a1e b63c ce06 0bbb 4c16 28bd 99bf a3bb
000001f0: 0dbd 8f3b d8c1 37bb 2959 2c3b f079 2cbd
00000200: a78a 6c3c b353 4cbc de08 01bd 79d0 37bd
00000210: 962e 1fbd 38c1 30bd 1d00 51bc 7e9c 1d3b
00000220: b42d 0a3d 84af 9f3c 32cc 27bd 8328 dbbc
00000230: d294 c2bc d734 1ebd 1eb9 f23c 36eb abbc
00000240: 98e2 ab3c ba39 98bc 9d32 bf3c 4192 3bbd
00000250: 08e8 ddb8 474c 133c 7ed8 16bd ea73 023c
00000260: a706 ae3b 5c58 923b b8a9 3dbd a156 0d3d
00000270: 4d89 cf3c 7426 7abc 53d8 de3c faf0 ed3b
00000280: 95a8 b4bc 8726 a83b d28c 2dbc 2de2 1c3d
00000290: c224 0dbc 2174 1c3d a07d 9f3c 63ea 29bc
000002a0: 6a4b 663a 1cc7 6ebb 53ce 33bc 12ff b13b
000002b0: c6c4 1a3d 02cb f33c 7459 1d3c 8c56 23bd
000002c0: 47a9 22bd 0458 45bd 6470 1cbc 8eb0 9abb
000002d0: 159f d73b 2872 b2bc 089d 293d 29ae 25bc
000002e0: 7ca9 0b3c cc11 60bc 0aae 24bd 2dec 8bbb
000002f0: ca37 7dbb 2641 9ebc c6b6 033d 1128 a2bc
00000300: b69b cebc 02bf e73c ebfe 2c3c 061e 2cbc
00000310: d541 ac3b 3d53 7fbc 1a51 aa3c 4bac a0bc
00000320: 907f eebc e5b8 10bd 0ea7 a73c 5fe0 37bc
00000330: e671 6e3b da45 cc3c 8c12 2fbd 2006 bfba
00000340: 0dd7 edbc b7b8 1f3d e6d4 65ba 82fd 003d
00000350: b3b0 cf3c b177 4cbb 0d2d 95bb 2b11 b9bc
00000360: f083 cb3c bb3a 26bc 65c2 0ebd e343 2d3d
00000370: 2c8b b9bc b089 d93c 46e5 163b a198 bf3c
00000380: ae2f d9bc 5e35 e33c ac00 9cbc 4071 1ebd
00000390: 09db 233d e527 b4bc 1d5f e73b 7a8c ebbc
000003a0: c391 743c 9752 14bd 120f d6bc c9f3 d73c
000003b0: 05b4 833c 5eaa be3c 70a6 fbbc 5950 83bc
000003c0: 54b5 27bd 446a 83bc a1c4 ed3c b35d 7abc
000003d0: e061 13bd 85b7 85b9 9f42 b83b 7c72 033d
000003e0: d18e 963c 2d63 d0bc ad67 eabc f969 1d3d
000003f0: f8bc b33a d691 c73b f4a2 fabb 8001 2f3c

StatefulPartitionedCall/model_1/conv2d_10/BiasAdd/ReadVariableOp:0 f4 [16]
-0.00083592976 -0.01272381 0.001822722 0.00814979 -0.0058299312 -0.008025781 -0.0054901857 0.004363391
0.0004959918 0.013668831 0.017887328 -0.0040201168 0.001136759 -0.0072198072 0.00067106076 0.014156029
00000000: 4c22 5bba 8777 50bc 67e8 ee3a b286 053c
00000010: 0209 bfbb 917e 03bc 04e7 b3bb c7fa 8e3b
00000020: 7205 023a 3cf3 5f3c 7288 923c 2fbb 83bb
00000030: 4dff 943a 2294 ecbb 20ea 2f3a b0ee 673c

StatefulPartitionedCall/model_1/batch_normalization_5/ReadVariableOp_1:0 f4 [16]
-0.010982314 -0.008891472 0.001139696 -0.0069012847 -0.0115363505 -0.0071963253 0.007666582 -0.013445212
-0.016039075 -0.0059111533 -0.0045228256 -0.0046633743 0.005239441 -0.012239091 -0.013551646 0.0038675102
00000000: 2aef 33bc 89ad 11bc da61 953a 2c24 e2bb
00000010: f602 3dbc 27cf ebbb f337 fb3b 4e49 5cbc
00000020: 6164 83bc 59b2 c1bb 3634 94bb 38cf 98bb
00000030: 9eaf ab3b 7886 48bc b907 5ebc 0e76 7d3b

StatefulPartitionedCall/model_1/batch_normalization_5/ReadVariableOp:0 f4 [16]
0.97535545 0.9869605 0.9949015 0.99497277 0.99080116 0.9736283 0.98443735 0.993189
0.98417157 0.9830761 0.98534924 0.9752761 0.9680246 0.9848277 0.9939934 0.9824527
00000000: e5b0 793f 71a9 7c3f ddb1 7e3f 89b6 7e3f
00000010: 25a5 7d3f b43f 793f 1604 7c3f a241 7e3f
00000020: abf2 7b3f e0aa 7b3f d93f 7c3f b2ab 793f
00000030: 76d0 773f ab1d 7c3f 5a76 7e3f 0582 7b3f

StatefulPartitionedCall/model_1/batch_normalization_5/FusedBatchNormV3/ReadVariableOp_1:0 f4 [16]
10.075232 7.796662 0.24793799 0.12517552 1.7828363 6.885418 0.06842719 10.150433
11.459267 1.1808134 0.9387516 1.4290521 5.9678235 9.735792 8.0917225 0.31971395
00000000: 2634 2141 417e f940 75e3 7d3e 032e 003e
00000010: fb33 e43f 5855 dc40 8e23 8c3d 2c68 2241
00000020: 2859 3741 e524 973f 0652 703f 2eeb b63f
00000030: 69f8 be40 cec5 1b41 b277 0141 8cb1 a33e

StatefulPartitionedCall/model_1/batch_normalization_5/FusedBatchNormV3/ReadVariableOp:0 f4 [16]
5.953261 5.6322308 0.10389447 0.054695234 0.53926903 5.120405 0.040986057 7.6209784
7.699363 0.47319126 0.41594738 0.5807087 1.3919282 6.7005215 7.3713923 0.13106826
00000000: 1d81 be40 3c3b b440 a0c6 d43d 1c08 603d
00000010: 890d 0a3f 5cda a340 ffe0 273d 0edf f340
00000020: 2f61 f640 2046 f23e 0ef7 d43e 53a9 143f
00000030: b42a b23f ac6a d640 72e2 eb40 c236 063e

StatefulPartitionedCall/model_1/batch_normalization_4/ReadVariableOp_1:0 f4 [16]
0.017122377 0.013165432 -0.0020345468 -0.0039579063 -0.005791306 -0.00012987244 -0.01208542 -0.023763089
0.028056638 0.011435221 0.0057900753 0.007150317 -0.020524265 -0.0017507384 0.005391792 -0.0054034353
00000000: 3a44 8c3c d3b3 573c 0856 05bb 53b1 81bb
00000010: ffc4 bdbb 5e2e 08b9 ed01 46bc cfaa c2bc
00000020: 09d7 e53c cb5a 3b3c acba bd3b 354d ea3b
00000030: 8122 a8bc 0879 e5ba a1ad b03b 4d0f b1bb

StatefulPartitionedCall/model_1/batch_normalization_4/ReadVariableOp:0 f4 [16]
1.0048919 0.98206335 1.0099044 0.9884211 1.0179589 1.0000193 0.98726857 1.0048307
1.0116984 0.97978854 1.0064905 1.0116177 1.0167397 1.0205371 0.9940421 0.98510224
00000000: 4ca0 803f 8168 7b3f 8c44 813f 2a09 7d3f
00000010: 7a4c 823f a200 803f a2bd 7c3f 4b9e 803f
00000020: 557f 813f 6cd3 7a3f aed4 803f b07c 813f
00000030: 8724 823f f6a0 823f 8b79 7e3f a92f 7c3f

StatefulPartitionedCall/model_1/batch_normalization_4/FusedBatchNormV3/ReadVariableOp_1:0 f4 [16]
2.6508377 0.63077605 0.37981117 0.90050524 1.0986404 2.400958 0.65901965 0.37788165
0.6681481 5.055921 1.3817428 0.38481674 4.0822086 1.603779 0.6933391 3.1232634
00000000: 53a7 2940 8a7a 213f 9c76 c23e 8387 663f
00000010: 40a0 8c3f 4ca9 1940 83b5 283f b479 c13e
00000020: c10b 2b3f 1bca a140 f3dc b03f b306 c53e
00000030: 74a1 8240 a148 cd3f ac7e 313f 8ce3 4740

StatefulPartitionedCall/model_1/batch_normalization_4/FusedBatchNormV3/ReadVariableOp:0 f4 [16]
0.75798583 0.41543052 0.38210517 0.522532 0.66485876 0.6411147 0.46572012 0.40931478
0.40778786 1.3251698 0.58728117 0.3686267 1.4698056 0.64075315 0.34756386 0.9089712
00000000: 5c0b 423f 4fb3 d43e 4aa3 c33e a8c4 053f
00000010: 2f34 2a3f 1820 243f de72 ee3e b591 d13e
00000020: 92c9 d03e 2a9f a93f 0f58 163f a4bc bc3e
00000030: 9722 bc3f 6608 243f e4f3 b13e 56b2 683f

StatefulPartitionedCall/model_1/batch_normalization_3/ReadVariableOp_1:0 f4 [16]
-0.008848414 0.00032506007 -0.006250156 -0.0013067243 0.013506897 0.0014960141 -0.006352 -0.020196106
0.029664557 -0.012990938 0.024379415 0.009969653 0.00407316 -0.009391916 -0.010060596 -0.017262805
00000000: f0f8 10bc d36c aa39 1cce ccbb 6446 abba
00000010: 084c 5d3c e715 c43a 7024 d0bb 4e72 a5bc
00000020: 1603 f33c f1d7 54bc 57b7 c73c c157 233c
00000030: 2478 853b 8de0 19bc 33d5 24bc ba6a 8dbc

StatefulPartitionedCall/model_1/batch_normalization_3/ReadVariableOp:0 f4 [16]
1.0032574 0.99274206 0.99003315 0.99078774 0.99789304 0.9935713 0.9983021 1.0252057
0.98556983 1.0216573 0.98768026 0.99292684 0.9870518 1.001859 1.0320415 1.0068612
00000000: bd6a 803f 5824 7e3f d072 7d3f 44a4 7d3f
00000010: eb75 7f3f b05a 7e3f ba90 7f3f f139 833f
00000020: 4e4e 7c3f abc5 823f 9dd8 7c3f 7430 7e3f
00000030: 6daf 7c3f ea3c 803f f019 843f d4e0 803f

StatefulPartitionedCall/model_1/batch_normalization_3/FusedBatchNormV3/ReadVariableOp_1:0 f4 [16]
1.2043061 4.478184 1.2913969 1.7678602 4.446545 1.314225 3.269132 0.38460478
1.7889429 0.3063322 1.9565843 1.9392645 6.385276 1.4191389 0.39343712 1.6230686
00000000: b426 9a3f 494d 8f40 7e4c a53f 3e49 e23f
00000010: 194a 8e40 8638 a83f 7539 5140 ebea c43e
00000020: 15fc e43f 93d7 9c3e 5b71 fa3f d239 f83f
00000030: 2e54 cc40 58a6 b53f 9770 c93e b6c0 cf3f

StatefulPartitionedCall/model_1/batch_normalization_3/FusedBatchNormV3/ReadVariableOp:0 f4 [16]
0.9236089 0.98354626 0.62754935 0.6341252 1.0709121 0.5762298 0.7207994 0.519949
0.72355 0.43426645 0.65061563 0.59260666 1.1715492 0.52374 0.48448148 0.8707326
00000000: a271 6c3f b0c9 7b3f 13a7 203f 0756 223f
00000010: a613 893f cc83 133f 4f86 383f 611b 053f
00000020: 933a 393f 2c58 de3e bf8e 263f 12b5 173f
00000030: 53f5 953f d313 063f f50d f83e 55e8 5e3f

StatefulPartitionedCall/model_1/batch_normalization_2/ReadVariableOp_1:0 f4 [16]
-0.0023889097 -0.0042359238 0.0053973715 0.00970057 -0.0010899642 -0.014511785 -0.0048710126 -0.005354185
0.011144373 0.0034185871 -0.0021882837 -0.0039594127 0.016269438 -0.01099016 0.008306707 0.0013053771
00000000: 418f 1cbb 81cd 8abb 6fdc b03b 24ef 1e3c
00000010: 21dd 8eba d6c2 6dbc 049d 9fbb 2972 afbb
00000020: e396 363c 600a 603b 4f69 0fbb f6bd 81bb
00000030: 7c47 853c 1210 34bc db18 083c 3019 ab3a

StatefulPartitionedCall/model_1/batch_normalization_2/ReadVariableOp:0 f4 [16]
0.996263 1.0040795 0.99206907 0.9987792 1.011216 0.99479437 1.0054237 1.0019677
1.0034914 1.0120065 1.0076268 1.0061115 0.99692655 0.9995269 0.99292475 0.9928475
00000000: 180b 7f3f ad85 803f 3df8 7d3f feaf 7f3f
00000010: 876f 813f d8aa 7e3f b9b1 803f 7a40 803f
00000020: 6872 803f 6e89 813f eaf9 803f 43c8 803f
00000030: 9436 7f3f ffe0 7f3f 5130 7e3f 412b 7e3f

StatefulPartitionedCall/model_1/batch_normalization_2/FusedBatchNormV3/ReadVariableOp_1:0 f4 [16]
0.39002857 0.6993223 1.2417433 0.13993266 0.985987 4.380333 0.66931325 0.39146516
1.418459 0.9843299 0.30486956 0.36737257 0.6978578 4.8802037 0.89875215 0.5517055
00000000: d3b1 c73e c906 333f 72f1 9e3f 824a 0f3e
00000010: a569 7c3f b02b 8c40 1d58 2b3f 1f6e c83e
00000020: 1190 b53f 0bfd 7b3f dd17 9c3e 4218 bc3e
00000030: cfa6 323f a12a 9c40 9f14 663f 923c 0d3f

StatefulPartitionedCall/model_1/batch_normalization_2/FusedBatchNormV3/ReadVariableOp:0 f4 [16]
0.3949649 0.16310753 0.6680356 0.32647008 0.23495436 1.4431003 0.41080856 0.2799493
0.36611742 0.4653587 0.47532344 0.27380636 0.24381007 1.533648 0.36781853 0.4264041
00000000: d738 ca3e a905 273e 6204 2b3f 1627 a73e
00000010: e097 703e 83b7 b83f 8055 d23e 8455 8f3e
00000020: be73 bb3e 7f43 ee3e 985d f33e 5930 8c3e
00000030: 59a9 793e 944e c43f b652 bc3e a351 da3e

StatefulPartitionedCall/model_1/batch_normalization_1/ReadVariableOp_1:0 f4 [16]
0.015890835 0.021121858 -0.017700214 0.013037077 -0.0011007321 -0.014736796 0.0022774206 -0.0070148883
-0.0062885275 0.003020655 0.00776905 0.012178851 -0.0065407795 -0.014429282 0.00041784978 0.0034779867
00000000: 7f2d 823c bf07 ad3c 0a00 91bc 7799 553c
00000010: 7146 90ba 9a72 71bc c740 153b 26dd e5bb
00000020: fe0f cebb 2ef6 453b 8493 fe3b ce89 473c
00000030: 0954 d6bb cc68 6cbc d912 db39 efee 633b

StatefulPartitionedCall/model_1/batch_normalization_1/ReadVariableOp:0 f4 [16]
1.0241332 0.985208 1.0 0.98916036 0.98965466 1.0240566 1.0223185 1.0086433
0.9818608 0.9894207 0.9987461 0.9998047 0.9992645 0.9998583 0.9948642 0.99101204
00000000: cc16 833f 9736 7c3f 0000 803f 9d39 7d3f
00000010: 025a 7d3f 4914 833f 55db 823f 391b 813f
00000020: 3b5b 7b3f ad4a 7d3f d3ad 7f3f 33f3 7f3f
00000030: cccf 7f3f b7f6 7f3f 6caf 7e3f f7b2 7d3f

StatefulPartitionedCall/model_1/batch_normalization_1/FusedBatchNormV3/ReadVariableOp_1:0 f4 [16]
23.992022 6.2040456e-11 3.6719837e-23 83.1399 39.194653 0.09086449 9.546502 0.07905513
1866.7338 561.3105 36.129246 2.4424097e-14 9.050704 2.6413977e-14 35.667355 1770.2802
00000000: a9ef bf41 ac6d 882e f590 311a a147 a642
00000010: 53c7 1c42 2917 ba3d 79be 1841 a8e7 a13d
00000020: 7b57 e944 df53 0c44 5984 1042 22fe db28
00000030: afcf 1041 7cea ed28 5fab 0e42 f748 dd44

StatefulPartitionedCall/model_1/batch_normalization_1/FusedBatchNormV3/ReadVariableOp:0 f4 [16]
3.3165023 5.4612738e-11 0.0 21.358309 5.2469554 0.012429025 3.8106046 0.0016568853
113.02219 61.73187 5.6793165 6.171261e-13 0.7449012 1.5714776e-13 6.6863856 111.50438
00000000: 9341 5440 7a30 702e 0000 0000 d1dd aa41
00000010: 0fe7 a740 1ca3 4b3c f2e0 7340 d82b d93a
00000020: 5c0b e242 6fed 7642 f6bc b540 9fb4 2d2b
00000030: d8b1 3e3f c2ee 302a dff6 d540 3e02 df42
